2. ANN Classification/model/iris_model_KV.pt (torch, 3268 bytes, 5 tensors)

fc1.weight f4 [12, 4]
000000 0f 35 2d bc 8a 9a 85 3e 51 d5 8b 3f 15 8d 50 3d
       -0.010571732 0.26094466 1.0924474 0.050915796
000010 e0 46 5a be 4e 5d 96 be 20 e9 60 bd 58 17 10 be
       -0.21316099 -0.2936806 -0.054909825 -0.14071405
000020 37 9b 91 3e 52 6d a9 bd 8c 0f 0f 40 a4 bc ce be
       0.28438732 -0.08272804 2.235324 -0.40378296
000030 e0 bc 93 3e c2 4b 13 be 77 80 3c bf ee df 1f 3e
       0.28855038 -0.14384368 -0.7363352 0.15612766
000040 92 ac 59 bc f3 2a a5 3d b5 c0 91 3f 47 3e 0c 3e
       -0.013285773 0.080648325 1.1386935 0.13695632
000050 8e 6c cc 3d c5 ab 01 bf 1d c0 e9 3f 86 99 62 3e
       0.09981643 -0.50652725 1.8261753 0.22128877
000060 36 72 e3 3d e4 f8 a1 bd d7 f2 69 bf 3f a3 83 3e
       0.111057684 -0.079088 -0.9138617 0.25710484
000070 40 db e3 bd 92 9e 8e be 2c d1 00 be 20 07 9c be
       -0.11125803 -0.27855355 -0.12579793 -0.30474186
000080 9b c9 bf 3d ff 45 99 be 8f 60 a5 3d bf 8c cf 3e
       0.09364625 -0.29936215 0.08075058 0.40537068
000090 6f 61 5e 3e 18 16 97 3d d2 03 5c be da a1 68 bd
       0.21716855 0.07377261 -0.21485832 -0.05679498
0000a0 71 b6 38 3e 28 b0 c5 be 11 b7 46 3f 42 31 a4 3e
       0.18038346 -0.3861096 0.7762309 0.3206883
0000b0 50 17 b4 3e e5 77 97 3c e9 4c 94 3f ef ff 7d 3d
       0.35174036 0.018489787 1.1585971 0.062011655

fc1.bias f4 [12]
000000 e4 4e c3 bf 00 fc 7b ba 75 ee 91 bf 3c e5 e5 3f
       -1.525845 -0.0009612441 -1.1400896 1.7960582
000010 e8 0f c5 bf 05 53 d5 3b bd 61 f3 3f a8 a8 c8 be
       -1.5395479 0.006510141 1.9014202 -0.39191175
000020 a9 37 92 bf c5 be 4f bf 1e bc 12 c0 e4 19 f9 bf
       -1.1423236 -0.81150466 -2.2927318 -1.9461026

fc2.weight f4 [8, 12]
000000 b3 5a 46 3e c9 20 2a 3e 96 8a 84 3b c9 01 83 be
       0.19370537 0.16614069 0.004044841 -0.255873
000010 67 7c 74 3e 87 4d bd bf f8 88 53 bd 84 6e 8b 3e
       0.2387558 -1.4789284 -0.051644295 0.27232754
000020 86 49 03 3d fc b7 32 be 0f 62 ac 3d 3b 57 ea 3c
       0.03205254 -0.17452997 0.08417141 0.028606048
000030 eb 11 96 3e 55 19 71 be 21 4f f2 bf c7 17 56 be
       0.29310545 -0.2354482 -1.8930398 -0.20907508
000040 04 b7 a7 bd 05 9b 2f bf b3 a7 1b 3e 1f 32 22 3e
       -0.08189204 -0.68595916 0.15200691 0.15839432
000050 a3 ac 8c 3c 1e 45 7c 3e a3 21 b9 bd 92 e9 25 bd
       0.017172163 0.24635741 -0.09039619 -0.040505953
000060 a8 19 04 3e ee 37 7e bc a2 b0 86 be 5e 1d c6 bd
       0.12900412 -0.015516264 -0.26306635 -0.0967357
000070 1e 81 21 be a9 44 64 3e bb 73 01 3e 71 ae 64 3e
       -0.1577191 0.22291817 0.12641804 0.22332169
000080 ff fa 81 be 0d ee f2 be 7a 75 37 bf 5f 0d 1a 3e
       -0.25386807 -0.47447243 -0.7166363 0.15044163
000090 b6 56 86 bd 0f 48 3a be 0f 31 57 3e c7 03 de bd
       -0.065595075 -0.1819155 0.21014808 -0.10840564
0000a0 fb 1a 38 be 21 7b f4 3d 54 ff bd bd 7f 73 3c 3e
       -0.17979042 0.119375475 -0.092772156 0.18403433
0000b0 4b dc 60 3d c3 5e e9 3b 23 04 3f 3d 25 1f 5e be
       0.054897588 0.007121892 0.046634804 -0.21691568
0000c0 67 73 b8 bd 7b ee 0a be fe ae b5 3d 43 cb 10 3e
       -0.09006386 -0.13567536 0.08871268 0.14140038
0000d0 42 a0 50 be 99 76 c9 bd 67 38 39 3e 09 79 24 be
       -0.20373634 -0.09837074 0.18087922 -0.16061796
0000e0 ad cc 06 3d e3 8b 41 bd cc 22 38 be 1e c1 16 be
       0.032910038 -0.047252547 -0.17982024 -0.14722106
0000f0 ba 96 8b bc c8 f4 e9 3d 49 97 f6 be 3b 82 6c 3d
       -0.017039645 0.114236414 -0.48162296 0.057741385
000100 c4 1a fd be 0c 61 46 bc 0e cb 69 3e c7 56 c1 3d
       -0.49434483 -0.012108099 0.22831365 0.094403796
000110 f3 87 99 be d6 e6 27 3e 57 50 ac 3d 68 a3 24 bc
       -0.29986534 0.1639665 0.08413761 -0.010048725
000120 bb 93 a1 bd ab a0 cc 3d 8e 1d 18 3d c5 7b 02 be
       -0.078895055 0.099915825 0.03713756 -0.12742527
000130 c8 8a 99 be 7b c9 56 be 1a c5 87 bc 0a b7 7d bc
       -0.29988694 -0.20975296 -0.016573478 -0.015485534
000140 a8 12 53 3e 4e de 21 3c e0 86 d9 bd 87 6a 90 be
       0.20612586 0.009879662 -0.106214285 -0.28206274
000150 46 03 4e be 77 96 f5 3d 2c 40 6a 3e 6c 17 67 bc
       -0.20118436 0.119915895 0.22876042 -0.014104705
000160 d8 57 89 be 34 ef 57 3d d9 8f 59 3e 63 a5 43 be
       -0.26824832 0.052718356 0.2124628 -0.19106059
000170 ce e6 ec bd 1d 93 82 3d 8f 95 5b be 72 14 6c be
       -0.1156746 0.06375716 -0.21443771 -0.23054674

fc2.bias f4 [8]
000000 34 53 7e bf 9d 48 c7 bf d4 3e 8f 3f 70 81 2c be
       -0.9934571 -1.5569035 1.1191049 -0.16846251
000010 c0 a6 0e 40 a4 98 ed 3f a3 88 cc 3d d1 c4 47 be
       2.2289276 1.8562207 0.09986999 -0.19508673

fc3.weight f4 [1, 8]
000000 66 4f 21 3f b4 c3 81 3e 87 b3 ad be 6b 97 91 3c
       0.6301178 0.25344622 -0.3392603 0.017772397
000010 b2 20 1f bf 6a 72 68 bf 61 c3 35 3e b6 91 ed bd
       -0.62159264 -0.9079958 0.17750312 -0.11600058
