2. ANN Classification/model/pima_model_KV.pt (torch, 4168 bytes, 7 tensors)

fc1.weight f4 [12, 8]
000000 89 77 d3 3e 7e 73 b2 3e d5 b0 b5 be 1b 3a cb bf
       0.41302136 0.3485374 -0.35486475 -1.5877107
000010 23 58 2f 3d 31 0e eb be c2 dd d1 bf db f2 fc bc
       0.042808663 -0.45909265 -1.63958 -0.030877521
000020 05 fc 34 bf e8 45 00 3e 5e 72 2d 3e 5e b6 87 3e
       -0.7069705 0.12526667 0.16938159 0.26506323
000030 ef e6 f1 bd bd 30 68 be e1 6a 95 c0 a4 da 36 bc
       -0.11811625 -0.22674842 -4.6692967 -0.011160526
000040 2c 9c cc bf ba d0 15 bf d6 2a 0c 3f b3 a3 92 3e
       -1.598516 -0.58521616 0.5475286 0.28640518
000050 e5 4b df 3d ac 6d 5c bd 8f 08 70 be 68 73 cc be
       0.109031476 -0.05381553 -0.23440765 -0.39931798
000060 ef d2 c5 bf 8b 75 e4 3d 73 6b 62 3e b3 a2 94 3e
       -1.5454997 0.11155232 0.22111301 0.2903038
000070 e6 98 df 3d 1e d7 97 3e db 87 a4 3f 7b 46 d9 bd
       0.10917835 0.2965631 1.285396 -0.10609146
000080 78 d3 80 be 1e c2 6d be d3 b9 19 be 11 7b c5 3d
       -0.25161338 -0.23218581 -0.15012293 0.09642614
000090 00 67 51 bd f1 6c cb 3d 06 b0 91 3f 0b f4 2b 3f
       -0.05112362 0.09932888 1.1381843 0.67169255
0000a0 33 2f 35 3e 06 b8 b9 bd e9 2c 6c be b9 09 1e be
       0.17693786 -0.09068303 -0.23064007 -0.15433396
0000b0 5d 38 ad be 68 87 3a be e9 ac a5 be ae 95 ba bc
       -0.33832064 -0.18215716 -0.32358482 -0.022776451
0000c0 ef a9 9b 3e 22 08 fc bd ba 54 9f bd 8f 51 17 3e
       0.30403087 -0.12306239 -0.07779832 0.14777206
0000d0 22 07 77 be 34 54 cc 3e 64 4d 1f 3f 31 4e 28 3f
       -0.24123815 0.39907992 0.62227464 0.6574431
0000e0 3e 0d 50 be ab e8 c4 bd 06 11 e6 3e 24 36 b9 be
       -0.20317551 -0.096146904 0.44934863 -0.3617412
0000f0 a3 a6 c4 3d 83 91 4a be a7 07 a0 bf ac 4a 41 bf
       0.09602096 -0.19782071 -1.2502335 -0.75504565
000100 ac cf 89 3f f8 a3 64 3e b0 a3 44 bf 9c 26 89 3e
       1.0766501 0.22328174 -0.7681227 0.2678727
000110 8d 9e f6 3d 19 4d f1 be 89 34 c4 3d 59 70 ac bb
       0.1204196 -0.47129133 0.09580333 -0.0052624163
000120 c7 d3 cb 3e 01 ed 79 3e 07 93 37 be 67 31 16 bd
       0.3981001 0.24406816 -0.1792718 -0.036668207
000130 b1 29 51 bf 0b 52 5c 3e 40 47 28 40 0b 4e 6f be
       -0.8170424 0.21515672 2.6293488 -0.23369615
000140 57 9e 26 3f 2d 1c c0 be bd 5b 57 3e fe df 21 3f
       0.6508536 -0.37521496 0.21031089 0.6323241
000150 b5 1a 2c 3e eb 78 b9 be 6a 6e 38 3d f5 a9 00 3e
       0.16807063 -0.36225066 0.045027174 0.12564833
000160 ce 34 84 3f 66 05 20 3e d8 35 3b bd ac 9e 6d be
       1.0328615 0.1562706 -0.045705646 -0.2320506
000170 81 e0 cf bd c6 98 14 3d b1 9d 4c 40 ba cb 9c 3e
       -0.101502426 0.03627851 3.1971247 0.3062418

fc1.bias f4 [12]
000000 ce 02 bf 3f 67 a9 0f 40 ff 82 92 3e fc 08 5f bf
       1.4922731 2.2447145 0.28615567 -0.87123084
000010 09 6e 43 be bd aa 14 bd 4f a0 d0 be f0 6d bf 3f
       -0.19084944 -0.03629564 -0.40747306 1.4955425
000020 19 69 15 c0 c6 d1 fb bf 6f 6b 86 bf a9 d5 d2 be
       -2.3345397 -1.9673393 -1.0501536 -0.41178635

fc2.weight f4 [8, 12]
000000 ab fb 7d 3d 97 62 89 bd fe 3b e8 3c 3d bd d4 be
       0.062007587 -0.06708258 0.028348919 -0.41550627
000010 46 60 a6 3e 4c ee f9 3d 9b 37 89 bf 1d 66 81 be
       0.32495326 0.12203655 -1.0720094 -0.2527322
000020 92 f3 0e 3e e9 dc 10 be 4d 6d 31 3c a2 67 dd 3a
       0.13960102 -0.1414677 0.010829282 0.0016891847
000030 99 bd 44 3d 46 c2 0b be e7 f5 21 3d b0 1d a3 be
       0.048032377 -0.13648328 0.03954115 -0.31858587
000040 ec d3 5f 3e 8f 8e ec bc 8e 1f 09 be 25 bb 73 3d
       0.21858186 -0.028876571 -0.13390943 0.059504647
000050 4d 16 87 3d 79 5d 08 3e f9 de 7d be a0 f7 98 be
       0.065960504 0.13316907 -0.24792089 -0.29876423
000060 75 cc d7 3e ec 77 94 be ab 18 6d be 5d 13 38 be
       0.42148176 -0.28997743 -0.23153941 -0.17976137
000070 e8 b3 03 3f 1d 8f fe bd 09 9e 99 3e e0 7a bc be
       0.5144639 -0.124296404 0.30003384 -0.36812496
000080 6a c1 99 be fb 7a 4b 3e 34 4f e3 bf 0a 64 6c 3e
       -0.30030376 0.19871132 -1.7758546 0.23085037
000090 5c ae 1a 3d 74 b8 82 bf 9d c6 86 3e ce e9 54 be
       0.03776394 -1.0212541 0.26323405 -0.20792314
0000a0 c2 01 ad bf 93 4c 1e bd a9 a9 85 be 11 8d 0f 3c
       -1.3516161 -0.038647246 -0.26106003 0.00876166
0000b0 91 83 85 3d 74 cb b5 3e 6b 5d 82 bd 14 10 c7 3d
       0.06519235 0.35506785 -0.06365474 0.097198635
0000c0 2d 30 65 be 72 55 45 bd 2f c0 c1 be 99 13 5d 3e
       -0.22381659 -0.04817719 -0.37841937 0.21589507
0000d0 e9 43 e6 bf 52 cc 0b 3e 7c fd 84 be 63 81 24 bf
       -1.7989475 0.13652161 -0.25974643 -0.6425993
0000e0 49 07 bb 3e 15 5d 19 39 30 65 9b 3d 38 ce 86 3e
       0.36528996 0.00014625893 0.07587659 0.26329207
0000f0 88 e5 18 3f 82 f4 85 3e b2 ab 94 3f cd 46 05 3e
       0.59725237 0.26163107 1.1614897 0.1301529
000100 52 b0 16 3e dc d8 f2 bd ff 07 c4 3c 2e 80 e2 3e
       0.14715698 -0.11857769 0.023929594 0.44238418
000110 fb f0 0b bf 98 31 20 bc 20 80 46 3d 80 97 6c bd
       -0.5466458 -0.009777449 0.048462033 -0.05776167
000120 0c 1f a2 be 4d ca 20 be 5a bf 2a bf eb 5f bc 3d
       -0.31664312 -0.15702172 -0.6669823 0.091979824
000130 4d 50 98 be 96 c1 f3 bd 9c 5b ff 3e 53 26 9a be
       -0.29748765 -0.11902158 0.4987458 -0.30107364
000140 f7 b7 05 3f 35 ea 9a 3e e1 07 03 bf 2b 36 85 be
       0.52233833 0.3025681 -0.511839 -0.2601789
000150 07 5a 94 3e 5d b9 98 be 8c a7 d1 bd 7a cc 15 bf
       0.28974935 -0.2982892 -0.10237035 -0.5851513
000160 c6 d9 85 3f be 9a 35 3e ae df 18 bd 0b 53 1b 3e
       1.0457084 0.1773481 -0.037322693 0.15168397
000170 7c b7 14 be 0a d6 2d 3e 7b f0 b3 3e e2 3e dc 3e
       -0.14523119 0.1697618 0.3514441 0.43016726

fc2.bias f4 [8]
000000 84 5e da bc a3 e9 4d 3e ef 2f 31 bf f0 ab f6 bf
       -0.026656397 0.20108657 -0.69213766 -1.9271221
000010 68 08 0e c0 a6 ec 74 3f b6 b0 96 bf 32 a6 f8 3e
       -2.219263 0.95673597 -1.1772678 0.48564297

fc3.weight f4 [4, 8]
000000 b0 d4 82 3f 0a 43 5b 3e 47 ef 52 3e 14 e0 93 be
       1.0221157 0.21412292 0.2059909 -0.28881896
000010 11 fe 1f be 58 12 db 3d 9c fd 81 3e a6 c4 56 be
       -0.15624262 0.10696858 0.253888 -0.20973453
000020 79 e8 a7 bf 0a 62 23 3e 55 6e 3a bc 24 2e 8b 3f
       -1.311782 0.15955368 -0.011378844 1.0873456
000030 da d7 ed 3d 1f 1c 19 3f 3a 9a 06 3f 59 7c 47 3f
       0.11613436 0.59808534 0.5257908 0.77924114
000040 d5 6d 29 3f a1 78 ad 3d 2c db b3 3e 0c 91 19 bf
       0.66183215 0.08470274 0.35128152 -0.5998695
000050 75 e3 47 bf dc f6 44 be e8 b7 57 bf cf 2d 16 3f
       -0.78081447 -0.19234794 -0.84264994 0.5866365
000060 b5 56 e7 3d 95 9e 26 be f4 56 d0 be 82 53 92 3e
       0.11295835 -0.16271432 -0.4069134 0.28579336
000070 46 12 89 be c2 f6 5e 3e 1c c3 38 be 5d 14 b7 bf
       -0.26771754 0.21773818 -0.18043178 -1.4303089

fc3.bias f4 [4]
000000 6f d2 f7 3f db c2 d4 bf 58 c3 03 3f 12 4c 11 40
       1.9361094 -1.6621965 0.51469946 2.270268

fc4.weight f4 [1, 4]
000000 95 e8 38 bf 37 3c 22 3f 37 67 bf bf ee eb 05 c0
       -0.7222989 0.6337313 -1.4953374 -2.092525
